{"config": [{"config": {"embeddings_regularizer": null, "trainable": true, "output_dim": 128, "batch_input_shape": [null, 7], "input_length": 7, "dtype": "float32", "name": "embedding_1", "mask_zero": true, "embeddings_constraint": null, "activity_regularizer": null, "input_dim": 4030, "embeddings_initializer": {"config": {"minval": -0.05, "seed": null, "maxval": 0.05}, "class_name": "RandomUniform"}}, "class_name": "Embedding"}, {"config": {"bias_initializer": {"config": {}, "class_name": "Zeros"}, "use_bias": true, "units": 100, "recurrent_activation": "hard_sigmoid", "stateful": false, "kernel_constraint": null, "name": "lstm_1", "bias_regularizer": null, "recurrent_regularizer": null, "go_backwards": false, "return_sequences": true, "return_state": false, "recurrent_initializer": {"config": {"gain": 1.0, "seed": null}, "class_name": "Orthogonal"}, "trainable": true, "kernel_initializer": {"config": {"scale": 1.0, "mode": "fan_avg", "distribution": "uniform", "seed": null}, "class_name": "VarianceScaling"}, "kernel_regularizer": null, "bias_constraint": null, "recurrent_constraint": null, "recurrent_dropout": 0.0, "unroll": false, "unit_forget_bias": true, "activity_regularizer": null, "dropout": 0.0, "activation": "tanh", "implementation": 0}, "class_name": "LSTM"}, {"config": {"bias_initializer": {"config": {}, "class_name": "Zeros"}, "use_bias": true, "units": 100, "recurrent_activation": "hard_sigmoid", "stateful": false, "kernel_constraint": null, "name": "lstm_2", "bias_regularizer": null, "recurrent_regularizer": null, "go_backwards": false, "return_sequences": false, "return_state": false, "recurrent_initializer": {"config": {"gain": 1.0, "seed": null}, "class_name": "Orthogonal"}, "trainable": true, "kernel_initializer": {"config": {"scale": 1.0, "mode": "fan_avg", "distribution": "uniform", "seed": null}, "class_name": "VarianceScaling"}, "kernel_regularizer": null, "bias_constraint": null, "recurrent_constraint": null, "recurrent_dropout": 0.0, "unroll": false, "unit_forget_bias": true, "activity_regularizer": null, "dropout": 0.0, "activation": "tanh", "implementation": 0}, "class_name": "LSTM"}, {"config": {"rate": 0.5, "trainable": true, "name": "dropout_1"}, "class_name": "Dropout"}, {"config": {"bias_initializer": {"config": {}, "class_name": "Zeros"}, "use_bias": true, "units": 112, "trainable": true, "kernel_initializer": {"config": {"scale": 1.0, "mode": "fan_avg", "distribution": "uniform", "seed": null}, "class_name": "VarianceScaling"}, "kernel_regularizer": null, "bias_constraint": null, "kernel_constraint": null, "name": "dense_1", "activation": "linear", "activity_regularizer": null, "bias_regularizer": null}, "class_name": "Dense"}, {"config": {"activation": "softmax", "trainable": true, "name": "activation_1"}, "class_name": "Activation"}], "keras_version": "2.0.8", "backend": "tensorflow", "class_name": "Sequential"}